…
plt.plot(epochs, acc, 'b', label='Training acc')
plt.plot(epochs, val_acc, 'r', label='Validation acc')
plt.title('Training and validation accuracy')
plt.legend()

plt.figure()

plt.plot(epochs, loss, 'b', label='Training loss')
plt.plot(epochs, val_loss, 'r', label='Validation loss')
plt.title('Training and validation loss')
plt.legend()

plt.show()
The terminal output:
VGG Pretrained Model loaded.
_________________________________________________________________
Layer (type)                 Output Shape              Param #
=================================================================
input_1 (InputLayer)         (None, 224, 224, 3)       0
_________________________________________________________________
block1_conv1 (Conv2D)        (None, 224, 224, 64)      1792
_________________________________________________________________
block1_conv2 (Conv2D)        (None, 224, 224, 64)      36928
_________________________________________________________________
block1_pool (MaxPooling2D)   (None, 112, 112, 64)      0
_________________________________________________________________
block2_conv1 (Conv2D)        (None, 112, 112, 128)     73856
_________________________________________________________________
block2_conv2 (Conv2D)        (None, 112, 112, 128)     147584
_________________________________________________________________
block2_pool (MaxPooling2D)   (None, 56, 56, 128)       0
_________________________________________________________________
block3_conv1 (Conv2D)        (None, 56, 56, 256)       295168
_________________________________________________________________
block3_conv2 (Conv2D)        (None, 56, 56, 256)       590080
_________________________________________________________________
block3_conv3 (Conv2D)        (None, 56, 56, 256)       590080
_________________________________________________________________
block3_pool (MaxPooling2D)   (None, 28, 28, 256)       0
_________________________________________________________________
block4_conv1 (Conv2D)        (None, 28, 28, 512)       1180160
_________________________________________________________________
block4_conv2 (Conv2D)        (None, 28, 28, 512)       2359808
_________________________________________________________________
block4_conv3 (Conv2D)        (None, 28, 28, 512)       2359808
_________________________________________________________________
block4_pool (MaxPooling2D)   (None, 14, 14, 512)       0
_________________________________________________________________
block5_conv1 (Conv2D)        (None, 14, 14, 512)       2359808
_________________________________________________________________
block5_conv2 (Conv2D)        (None, 14, 14, 512)       2359808
_________________________________________________________________
block5_conv3 (Conv2D)        (None, 14, 14, 512)       2359808
_________________________________________________________________
block5_pool (MaxPooling2D)   (None, 7, 7, 512)         0
=================================================================
Total params: 14,714,688
Trainable params: 14,714,688
Non-trainable params: 0
_________________________________________________________________
<keras.engine.topology.InputLayer object at 0x000001C834ABD0F0> False
<keras.layers.convolutional.Conv2D object at 0x000001C848B69828> True
<keras.layers.convolutional.Conv2D object at 0x000001C848319A20> True
…
<keras.layers.convolutional.Conv2D object at 0x000001C848C7B5C0> True
<keras.layers.pooling.MaxPooling2D object at 0x000001C848C86DA0> True
<keras.layers.convolutional.Conv2D object at 0x000001C848C99860> True
<keras.layers.convolutional.Conv2D object at 0x000001C848CA4D68> True
<keras.layers.convolutional.Conv2D object at 0x000001C848CAD710> True
<keras.layers.pooling.MaxPooling2D object at 0x000001C848CB8EB8> True
_________________________________________________________________
Layer (type)                 Output Shape              Param #
=================================================================
vgg16 (Model)                (None, 7, 7, 512)         14714688
_________________________________________________________________
flatten_1 (Flatten)          (None, 25088)             0
_________________________________________________________________
dense_1 (Dense)              (None, 12)                301068
_________________________________________________________________
activation_1 (Activation)    (None, 12)                0
_________________________________________________________________
dropout_1 (Dropout)          (None, 12)                0
_________________________________________________________________
dense_2 (Dense)              (None, 1)                 13
_________________________________________________________________
activation_2 (Activation)    (None, 1)                 0
=================================================================
Total params: 15,015,769
Trainable params: 15,015,769
Non-trainable params: 0
_________________________________________________________________
Found 46 images belonging to 12 classes.
Found 26 images belonging to 12 classes.
Epoch 1/50
Traceback (most recent call last):
  File "C:/Users/w024029h/PycharmProjects/keras_pretrained/vgg16_2.py", line 92, in <module>
…
