3rduncle commented on 5 May 2016 •
edited
Hi, I am working sequences similarity task following Sentence Similarity Learning by Lexical Decomposition and Composition[http://arxiv.org/abs/1602.07019]
I wrote a network like this.
____________________________________________________________________________________________________
Layer (type)                       Output Shape        Param #     Connected to
====================================================================================================
a_input (InputLayer)               (None, 1072)        0
____________________________________________________________________________________________________
q_input (InputLayer)               (None, 33)          0
____________________________________________________________________________________________________
embedding_1 (Embedding)            (None, 33, 300)     768600      q_input[0][0]
                                                                   a_input[0][0]
____________________________________________________________________________________________________
semantic (Merge)                   (33, 1072)          0           embedding_1[0][0]
                                                                   embedding_1[1][0]
____________________________________________________________________________________________________
a_match (Merge)                    (1072, 300)         0           embedding_1[0][0]
                                                                   semantic[0][0]
____________________________________________________________________________________________________
q_match (Merge)                    (33, 300)           0           embedding_1[1][0]
                                                                   semantic[0][0]
____________________________________________________________________________________________________
a+ (Merge)                         (50, 1072, 300)     0           embedding_1[1][0]
                                                                   a_match[0][0]
____________________________________________________________________________________________________
q+ (Merge)                         (50, 33, 300)       0           embedding_1[0][0]
                                                                   q_match[0][0]
____________________________________________________________________________________________________
a- (Lambda)                        (50, 1072, 300)     0           a+[0][0]
____________________________________________________________________________________________________
q- (Lambda)                        (50, 33, 300)       0           q+[0][0]
____________________________________________________________________________________________________
a_conv (Convolution1D)             (50, 1070, 500)     450500      a-[0][0]
                                                                   a+[0][0]
____________________________________________________________________________________________________
q_conv (Convolution1D)             (50, 31, 500)       450500      q-[0][0]
                                                                   q+[0][0]
____________________________________________________________________________________________________
merge_1 (Merge)                    (50, 31, 500)       0           q_conv[0][0]
                                                                   q_conv[1][0]
____________________________________________________________________________________________________
merge_2 (Merge)                    (50, 1070, 500)     0           a_conv[0][0]
                                                                   a_conv[1][0]
____________________________________________________________________________________________________
activation_1 (Activation)          (50, 31, 500)       0           merge_1[0][0]
____________________________________________________________________________________________________
activation_2 (Activation)          (50, 1070, 500)     0           merge_2[0][0]
____________________________________________________________________________________________________
a_maxpool (Lambda)                 (50, 500)           0           activation_2[0][0]
____________________________________________________________________________________________________
q_maxpool (Lambda)                 (50, 500)           0           activation_1[0][0]
____________________________________________________________________________________________________
similar (Merge)                    (50, 1)             0           q_maxpool[0][0]
                                                                   a_maxpool[0][0]
====================================================================================================
Total params: 1669600
____________________________________________________________________________________________________
When training, I got nan loss and weights after some batches.
I debug with mode=NanGuardMode(nan_is_error=True, inf_is_error=True).
…
