…
dropout_1 (Dropout)              (None, 210, 11, 13, 160           timedistributed_2[0][0]          
____________________________________________________________________________________________________
timedistributed_3 (TimeDistribute(None, 210, 11, 13, 324640        dropout_1[0][0]                  
____________________________________________________________________________________________________
activation_2 (Activation)        (None, 210, 11, 13, 320           timedistributed_3[0][0]          
____________________________________________________________________________________________________
timedistributed_4 (TimeDistribute(None, 210, 5, 6, 32) 0           activation_2[0][0]               
____________________________________________________________________________________________________
dropout_2 (Dropout)              (None, 210, 5, 6, 32) 0           timedistributed_4[0][0]          
____________________________________________________________________________________________________
timedistributed_5 (TimeDistribute(None, 210, 5, 6, 64) 18496       dropout_2[0][0]                  
____________________________________________________________________________________________________
activation_3 (Activation)        (None, 210, 5, 6, 64) 0           timedistributed_5[0][0]          
____________________________________________________________________________________________________
timedistributed_6 (TimeDistribute(None, 210, 2, 3, 64) 0           activation_3[0][0]               
____________________________________________________________________________________________________
dropout_3 (Dropout)              (None, 210, 2, 3, 64) 0           timedistributed_6[0][0]          
____________________________________________________________________________________________________
timedistributed_7 (TimeDistribute(None, 210, 384)      0           dropout_3[0][0]                  
____________________________________________________________________________________________________
dropout_4 (Dropout)              (None, 210, 384)      0           timedistributed_7[0][0]          
____________________________________________________________________________________________________
convolution1d_1 (Convolution1D)  (None, 210, 16)       18448       dropout_4[0][0]                  
____________________________________________________________________________________________________
maxpooling1d_1 (MaxPooling1D)    (None, 26, 16)        0           convolution1d_1[0][0]            
____________________________________________________________________________________________________
dropout_5 (Dropout)              (None, 26, 16)        0           maxpooling1d_1[0][0]             
____________________________________________________________________________________________________
lstm_1 (LSTM)                    (None, 64)            20736       dropout_5[0][0]                  
____________________________________________________________________________________________________
dense_1 (Dense)                  (None, 1)             65          lstm_1[0][0]                     
====================================================================================================
Total params: 62545
____________________________________________________________________________________________________