…
Can anyone please provide me a hint on what this error says
Also this prints the output as following
Loading the options ....
epochs: 500
batch_size: 2
filter_width: 3
stride: 3
learning rate: 0.001000
Loading and preprocessing train data...
Creating and compiling model...
Namespace(batch_size=2, epochs=500, filter_width=3, load_weights=False, lr=0.001, model_file='', out_dir='C:/Users/hiros/Desktop/u-net/Luna2016-Lung-Nodule-Detection-master/Luna2016-Lung-Nodule-Detection-master/DATA_PROCESS/scratch/cse/dual/cs5130287/Luna2016/output_final/', save_prefix='model_', stride=3)
Layer (type) Output Shape Param # Connected to
input_1 (InputLayer) (None, 1, 512, 512) 0
conv2d_1 (Conv2D) (None, 32, 512, 512) 320 input_1[0][0]
dropout_1 (Dropout) (None, 32, 512, 512) 0 conv2d_1[0][0]
conv_1 (Conv2D) (None, 32, 512, 512) 9248 dropout_1[0][0]
pool_1 (MaxPooling2D) (None, 32, 256, 256) 0 conv_1[0][0]
batch_normalization_1 (BatchNor (None, 32, 256, 256) 1024 pool_1[0][0]
conv2d_2 (Conv2D) (None, 64, 256, 256) 18496 batch_normalization_1[0][0]
dropout_2 (Dropout) (None, 64, 256, 256) 0 conv2d_2[0][0]
conv_2 (Conv2D) (None, 64, 256, 256) 36928 dropout_2[0][0]
pool_2 (MaxPooling2D) (None, 64, 128, 128) 0 conv_2[0][0]
batch_normalization_2 (BatchNor (None, 64, 128, 128) 512 pool_2[0][0]
conv2d_3 (Conv2D) (None, 128, 128, 128 73856 batch_normalization_2[0][0]
dropout_3 (Dropout) (None, 128, 128, 128 0 conv2d_3[0][0]
conv_3 (Conv2D) (None, 128, 128, 128 147584 dropout_3[0][0]
pool_3 (MaxPooling2D) (None, 128, 64, 64) 0 conv_3[0][0]
batch_normalization_3 (BatchNor (None, 128, 64, 64) 256 pool_3[0][0]
conv2d_4 (Conv2D) (None, 256, 64, 64) 295168 batch_normalization_3[0][0]
dropout_4 (Dropout) (None, 256, 64, 64) 0 conv2d_4[0][0]
conv_4 (Conv2D) (None, 256, 64, 64) 590080 dropout_4[0][0]
batch_normalization_4 (BatchNor (None, 256, 64, 64) 256 conv_4[0][0]
up_sampling2d_1 (UpSampling2D) (None, 256, 128, 128 0 batch_normalization_4[0][0]
concatenate_1 (Concatenate) (None, 384, 128, 128 0 up_sampling2d_1[0][0]
conv_3[0][0]
conv2d_5 (Conv2D) (None, 128, 128, 128 442496 concatenate_1[0][0]
dropout_5 (Dropout) (None, 128, 128, 128 0 conv2d_5[0][0]
conv_7 (Conv2D) (None, 128, 128, 128 147584 dropout_5[0][0]
batch_normalization_5 (BatchNor (None, 128, 128, 128 512 conv_7[0][0]
up_sampling2d_2 (UpSampling2D) (None, 128, 256, 256 0 batch_normalization_5[0][0]
concatenate_2 (Concatenate) (None, 192, 256, 256 0 up_sampling2d_2[0][0]
conv_2[0][0]
conv2d_6 (Conv2D) (None, 64, 256, 256) 110656 concatenate_2[0][0]
dropout_6 (Dropout) (None, 64, 256, 256) 0 conv2d_6[0][0]
conv_8 (Conv2D) (None, 64, 256, 256) 36928 dropout_6[0][0]
batch_normalization_6 (BatchNor (None, 64, 256, 256) 1024 conv_8[0][0]
up_sampling2d_3 (UpSampling2D) (None, 64, 512, 512) 0 batch_normalization_6[0][0]
concatenate_3 (Concatenate) (None, 96, 512, 512) 0 up_sampling2d_3[0][0]
conv_1[0][0]
conv2d_7 (Conv2D) (None, 32, 512, 512) 27680 concatenate_3[0][0]
dropout_7 (Dropout) (None, 32, 512, 512) 0 conv2d_7[0][0]
conv_9 (Conv2D) (None, 32, 512, 512) 9248 dropout_7[0][0]
batch_normalization_7 (BatchNor (None, 32, 512, 512) 2048 conv_9[0][0]
sigmoid (Conv2D) (None, 1, 512, 512) 33 batch_normalization_7[0][0]
Total params: 1,951,937
Trainable params: 1,949,121
Non-trainable params: 2,816