…
return Model(input_img, decoded)
`
and the data is retrieved using:
`
def load_data():
(x_train, _), (x_test, _) = mnist.load_data()
x_train = x_train.astype('float32') / 255.
x_test = x_test.astype('float32') / 255.
x_train = np.reshape(x_train, (len(x_train), 1, 28, 28))
x_test = np.reshape(x_test, (len(x_test), 1, 28, 28))
return x_train, x_test
`
As you see, I'm trying to normalize the images to display them in black and white, and simply to train an autoencoder to be able to restore them.
Below you can see the error I'm getting:
`
Using Theano backend.
Layer (type) Output Shape Param # Connected to
input_1 (InputLayer) (None, 1, 28, 28) 0
convolution2d_1 (Convolution2D) (None, 1, 28, 16) 4048 input_1[0][0]
maxpooling2d_1 (MaxPooling2D) (None, 1, 14, 16) 0 convolution2d_1[0][0]
convolution2d_2 (Convolution2D) (None, 1, 14, 8) 1160 maxpooling2d_1[0][0]
maxpooling2d_2 (MaxPooling2D) (None, 1, 7, 8) 0 convolution2d_2[0][0]
convolution2d_3 (Convolution2D) (None, 1, 7, 8) 584 maxpooling2d_2[0][0]
maxpooling2d_3 (MaxPooling2D) (None, 1, 4, 8) 0 convolution2d_3[0][0]
convolution2d_4 (Convolution2D) (None, 1, 4, 8) 584 maxpooling2d_3[0][0]
upsampling2d_1 (UpSampling2D) (None, 2, 8, 8) 0 convolution2d_4[0][0]
convolution2d_5 (Convolution2D) (None, 2, 8, 8) 584 upsampling2d_1[0][0]
upsampling2d_2 (UpSampling2D) (None, 4, 16, 8) 0 convolution2d_5[0][0]
convolution2d_6 (Convolution2D) (None, 2, 14, 16) 1168 upsampling2d_2[0][0]
upsampling2d_3 (UpSampling2D) (None, 4, 28, 16) 0 convolution2d_6[0][0]
convolution2d_7 (Convolution2D) (None, 4, 28, 1) 145 upsampling2d_3[0][0]
Total params: 8273
Traceback (most recent call last):
File "C:/Users//Documents/GitHub/main/research/research_framework/experiment.py", line 48, in
callbacks=[EarlyStopping(patience=3)])
File "C:\Users\AppData\Local\Continuum\Anaconda2\lib\site-packages\keras\engine\training.py", line 1047, in fit
batch_size=batch_size)
File "C:\Users\AppData\Local\Continuum\Anaconda2\lib\site-packages\keras\engine\training.py", line 978, in _standardize_user_data
…
