…
# outer_input = Input(shape=(seq_len, 10), batch_shape=(batch_size, seq_len, 10))
x = TimeDistributed(inner_model, input_shape=(10,))(outer_input)

x = GRU(8, return_sequences=False)(x)
sm = Dense(5, activation='softmax', name='PRED')(x)

model = Model(inputs=outer_input, outputs=sm, name='OUTER_MODEL')
###### END OUTER MODEL #######

model.summary()
Producing summaries for the inner and outer models:
_________________________________________________________________
Layer (type)                 Output Shape              Param #   
=================================================================
INNER_INPUT (InputLayer)     (4, 10)                   0         
_________________________________________________________________
INNER_SPLIT_A (Lambda)       (4, 6)                    0         
_________________________________________________________________
INNER_A_RESHAPED (Reshape)   (4, 2, 3)                 0         
_________________________________________________________________
flatten_1 (Flatten)          (4, 6)                    0         
_________________________________________________________________
dense_1 (Dense)              (4, 3)                    21        
=================================================================
Total params: 21
Trainable params: 21
Non-trainable params: 0
_________________________________________________________________
_________________________________________________________________
Layer (type)                 Output Shape              Param #   
=================================================================
input_1 (InputLayer)         (None, 20, 10)            0         
_________________________________________________________________
time_distributed_1 (TimeDist (None, 20, 3)             21        
_________________________________________________________________
gru_1 (GRU)                  (None, 8)                 288       
_________________________________________________________________
PRED (Dense)                 (None, 5)                 45        
=================================================================
Total params: 354
Trainable params: 354
Non-trainable params: 0
_________________________________________________________________
As commented in the code, it only occurs if the Reshape() layers are included AND the batch_shape is specified in the outer_input.
Does anyone know why this is happening and if it's meant to happen or some sort of bug? I would like to specify the batch_size of the outer input and still have a reshape layer inside.
…
