…
ipt I wrote for that:
def get_weights_without_softargmax(fname):
 model = load_model(fname, custom_objects={'spatial_softArgmax':spatial_softArgmax})
 
 model.summary()
 model.layers.pop() # reshape layer
 model.layers.pop() # spatial softargmax

 model.summary()
 
 model.save("no_softargmax_" + str(fname))
The first model.summary returns a summary of the whole network;
_________________________________________________________________
Layer (type)                 Output Shape              Param #   
=================================================================
input_1 (InputLayer)         (None, 1, 100, 100)       0         
_________________________________________________________________
conv2d_1 (Conv2D)            (None, 34, 100, 100)      2788      
_________________________________________________________________
conv2d_2 (Conv2D)            (None, 34, 100, 100)      93670     
_________________________________________________________________
conv2d_3 (Conv2D)            (None, 34, 100, 100)      93670     
_________________________________________________________________
conv2d_4 (Conv2D)            (None, 34, 100, 100)      93670     
_________________________________________________________________
spatial_soft_argmax_1 (spati (None, 68)                0         
_________________________________________________________________
reshape_1 (Reshape)          (None, 34, 2)             0         
=================================================================
Total params: 283,798
Trainable params: 283,798
Non-trainable params: 0
and the second one returns the now popped network
_________________________________________________________________
Layer (type)                 Output Shape              Param #   
=================================================================
input_1 (InputLayer)         (None, 1, 100, 100)       0         
_________________________________________________________________
conv2d_1 (Conv2D)            (None, 34, 100, 100)      2788      
_________________________________________________________________
conv2d_2 (Conv2D)            (None, 34, 100, 100)      93670     
_________________________________________________________________
conv2d_3 (Conv2D)            (None, 34, 100, 100)      93670     
_________________________________________________________________
conv2d_4 (Conv2D)            (None, 34, 100, 100)      93670     
=================================================================
Total params: 283,798
Trainable params: 283,798
Non-trainable params: 0
but when I try to do model.save() - i get this error:
Traceback (most recent call last):
  File "weight_chopper.py", line 18, in <module>
    get_weights_without_softargmax("34pts_94percent.h5")
  File "weight_chopper.py", line 16, in get_weights_without_softargmax
…
