albu5 commented on 27 Mar 2017
Layer (type) Output Shape Param #
input_2 (InputLayer) (None, 9, 150528) 0
reshape_1 (Reshape) (None, 9, 224, 224, 3) 0
time_distributed_1 (TimeDist (None, 9, 1, 1, 2048) 23587712
reshape_2 (Reshape) (None, 9, 2048) 0
lstm_1 (LSTM) (None, 9, 256) 2360320
dense_1 (Dense) (None, 9, 2) 514
W c:\tf_jenkins\home\workspace\release-win\device\gpu\os\windows\tensorflow\core\framework\op_kernel.cc:993] Invalid argument: You must feed a value for placeholder tensor 'input_1' with dtype float
[[Node: input_1 = Placeholderdtype=DT_FLOAT, shape=[], _device="/job:localhost/replica:0/task:0/gpu:0"]]
Traceback (most recent call last):
File "C:\lib\Anaconda3\envs\keras\lib\site-packages\tensorflow\python\client\session.py", line 1022, in _do_call
…
