…
    d = Conv2D(256*3*2,5,padding='same', activation='relu',data_format="channels_last")(d)
    #d = LeakyReLU(0.2)(d)
    #d = Dropout(0.23)(d)
    d = Flatten()(d)
    d = Dense(256*3,activation='relu')(d)
    d = LeakyReLU(0.2)(d)
    d = Dropout(0.25)(d)
    d_out = Dense(8,activation='softmax')(d)

    return Model(inp,d_out)

discr = buldStyleConv(256,180)
discr.compile(opt,'categorical_crossentropy')
discr.summary()
The summary:
Layer (type)                 Output Shape              Param #   
=================================================================
input_20 (InputLayer)        (None, 256, 180, 3)       0         
_________________________________________________________________
conv2d_33 (Conv2D)           (None, 256, 180, 768)     231168    
_________________________________________________________________
conv2d_34 (Conv2D)           (None, 256, 180, 1536)    29492736  
_________________________________________________________________
flatten_17 (Flatten)         (None, 70778880)          0         
_________________________________________________________________
dense_33 (Dense)             (None, 768)               5435818060
_________________________________________________________________
leaky_re_lu_21 (LeakyReLU)   (None, 768)               0         
_________________________________________________________________
dropout_21 (Dropout)         (None, 768)               0         
_________________________________________________________________
dense_34 (Dense)             (None, 8)                 6152      
=================================================================
Total params: 54,387,910,664.0
Trainable params: 54,387,910,664.0
Non-trainable params: 0.0
_________________________________________________________________
Could u say what's wrong ?
Thanks