…
decoder_outputs = encoder_dense1(encoder_outputs)
decoder_outputs = decoder_embedding(decoder_outputs)
decoder_outputs = decoder_lstm1(decoder_outputs)
decoder_outputs = decoder_lstm2(decoder_outputs)
decoder_outputs = Dropout(0.5)(decoder_outputs)
decoder_outputs = decoder_dense2(decoder_outputs)
model = Model(encoder_inputs, decoder_outputs)
model.summary()
Model summary for easy visualizing:
_________________________________________________________________
Layer (type)                 Output Shape              Param #   
=================================================================
input_7 (InputLayer)         (None, 32)                0         
_________________________________________________________________
embedding_13 (Embedding)     (None, 32, 512)           2018816   
_________________________________________________________________
lstm_19 (LSTM)               (None, 32, 512)           2099200   
_________________________________________________________________
dropout_10 (Dropout)         (None, 32, 512)           0         
_________________________________________________________________
dense_19 (Dense)             (None, 32, 3943)          2022759   
_________________________________________________________________
lambda_5 (Lambda)            (None, 32)                0         
_________________________________________________________________
lambda_6 (Lambda)            (None, 32)                0         
_________________________________________________________________
dense_20 (Dense)             (None, 501)               16533     
_________________________________________________________________
embedding_14 (Embedding)     (None, 501, 512)          2018816   
_________________________________________________________________
lstm_20 (LSTM)               (None, 501, 512)          2099200   
_________________________________________________________________
lstm_21 (LSTM)               (None, 501, 512)          2099200   
_________________________________________________________________
dropout_11 (Dropout)         (None, 501, 512)          0         
_________________________________________________________________
dense_21 (Dense)             (None, 501, 3943)         2022759   
=================================================================
Total params: 14,397,283
Trainable params: 14,397,283
Non-trainable params: 0
_________________________________________________________________
I googled for the solution but almost all were about a faulty model. Some recommended to not use functions causing that are causing issues. However, as you can see, I cannot create this model without K.argmax (If you know any other way then do tell me).
…
