sjsy commented on 30 May 2017 •
edited
Hi,
My installation of keras worked fine, but now it display the following error:
Using TensorFlow backend.
Layer (type) Output Shape Param #
dense_1 (Dense) (None, 512) 62464
dense_2 (Dense) (None, 512) 262656
dense_3 (Dense) (None, 512) 262656
dense_4 (Dense) (None, 512) 262656
dense_5 (Dense) (None, 121) 62073
Total params: 912,505
Trainable params: 912,505
Non-trainable params: 0
C:\Users\user\Anaconda3\envs\tensorflow\lib\site-packages\keras-2.0.4-py3.5.egg\keras\backend\tensorflow_backend.py:2252: UserWarning: Expected no kwargs, you passed 1
kwargs passed to function are ignored with Tensorflow backend
warnings.warn('\n'.join(msg))
Train on 1860480 samples, validate on 328320 samples
Epoch 1/200
2017-05-30 12:02:16.753478: W c:\tf_jenkins\home\workspace\release-win\device\gpu\os\windows\tensorflow\core\platform\cpu_feature_guard.cc:45] The TensorFlow library wasn't compiled to use SSE instructions, but these are available on your machine and could speed up CPU computations.
…
