…
To reproduce this results, you may need to use or read the files:
data files in ./data/nyp/bin_order/A1_808_bin.npy and ./data/nyp/bin_order/A1_808_bin_y.npy
Steps in function TwoStreamLSTM I used for 5-classes model or base model or pretrained model.
the pretrained model(model_5classes_dense64.json), weights(471-0.907-5classes-dense64.hdf5) or model with weights(model_5classes_dense64.h5) files.
again all files you can find here:
https://github.com/sailormoon2016/ParticleVideoClassification/tree/master/MLpaper/problem
The structure of base_model(5-classes):
Layer (type) Output Shape Param # Connected to
input_3 (InputLayer) (None, 60, 1) 0
input_4 (InputLayer) (None, 60, 1) 0
lstm_5 (LSTM) (None, 60, 32) 4352 input_3[0][0]
lstm_7 (LSTM) (None, 60, 32) 4352 input_4[0][0]
dropout_5 (Dropout) (None, 60, 32) 0 lstm_5[0][0]
dropout_7 (Dropout) (None, 60, 32) 0 lstm_7[0][0]
lstm_6 (LSTM) (None, 32) 8320 dropout_5[0][0]
lstm_8 (LSTM) (None, 32) 8320 dropout_7[0][0]
dropout_6 (Dropout) (None, 32) 0 lstm_6[0][0]
dropout_8 (Dropout) (None, 32) 0 lstm_8[0][0]
concatenate_2 (Concatenate) (None, 64) 0 dropout_6[0][0]
dropout_8[0][0]
dense_3 (Dense) (None, 32) 2080 concatenate_2[0][0]
dense_4 (Dense) (None, 5) 165 dense_3[0][0]
Total params: 27,589
Trainable params: 27,589
Non-trainable params: 0
The structure of head_model(binary):
Layer (type) Output Shape Param Connected to
input_11 (InputLayer) (None, 60, 1) 0
input_12 (InputLayer) (None, 60, 1) 0
lstm_21 (LSTM) (None, 60, 32) 4352 input_11[0][0]
lstm_23 (LSTM) (None, 60, 32) 4352 input_12[0][0]
dropout_21 (Dropout) (None, 60, 32) 0 lstm_21[0][0]
dropout_23 (Dropout) (None, 60, 32) 0 lstm_23[0][0]
lstm_22 (LSTM) (None, 32) 8320 dropout_21[0][0]
lstm_24 (LSTM) (None, 32) 8320 dropout_23[0][0]
dropout_22 (Dropout) (None, 32) 0 lstm_22[0][0]
dropout_24 (Dropout) (None, 32) 0 lstm_24[0][0]
concatenate_6 (Concatenate) (None, 64) 0 dropout_22[0][0]
dropout_24[0][0]
dense_11 (Dense) (None, 64) 4160 concatenate_6[0][0]
dense_12 (Dense) (None, 5) 325 dense_11[0][0]
dropout_5 (Dropout) (None, 5) 0 dense_12[0][0]
batch_normalization_5 (BatchNor (None, 5) 20 dropout_5[0][0]
dense_-2 (Dense) (None, 2) 12 batch_normalization_5[0][0]
dropout_6 (Dropout) (None, 2) 0 dense_-2[0][0]
batch_normalization_6 (BatchNor (None, 2) 8 dropout_6[0][0]
dense_-1 (Dense) (None, 1) 3 batch_normalization_6[0][0]
Total params: 29,872
Trainable params: 29
Non-trainable params: 29,843