…
Implementation is in Keras with tensor flow as backend. I run it on single GTX 1080 GPU.
I kept getting out-of-memory error at the end of epoch while evaluating on dev set. Looking at the log, the error happens while allocating tensor with shape[68423,1024].
I don't understand while this would even happen. Shouldn't the dev data be processed in mini-batch as well? my batch size is 2048. Why tensorflow even tries to allocate a tensor for the entire dev set?
Where does the dimension 1024 even come from?
my model is actually fairly small:
Layer (type) Output Shape Param # Connected to
seq1_input (InputLayer) (None, 8) 0
seq2_input (InputLayer) (None, 32) 0
shared_emb (Embedding) multiple 127861632
seq1_lstm (LSTM) (None, 256) 394240
seq2_lstm (LSTM) (None, 256) 394240
dot_product (Dot) (None, 1) 0
similarity_output (Dense) (None, 1) 2
Total params: 128,650,114
Trainable params: 128,650,114
Non-trainable params: 0
Codes for my model:
    seq1 = Input(shape=(8,), name='input1')
    seq2 = Input(shape=(32,), name='input2')
    
    embedding_dim = self.vocab.W.shape[1] if self.vocab.W != None else self.embedding_dim
    shared_embedding = Embedding(vocab_size, 128, name='shared_emb', trainable=True) 
    
    embedded_seq1 = shared_embedding(seq1)
…
