…
    model.compile(loss={'output_1':custom_loss_1(), 'output_2':custom_loss_2()},
                  loss_weights={'output_1':1.0, 'output_2':2.0}, optimizer='adam')
I have tested the model with other loss functions and it seems to be working fine. Here is model summary:
__________________________________________________________________________________________________
    Layer (type)                    Output Shape         Param #     Connected to                     
    ==================================================================================================
    feature_input (InputLayer)      (None, 135)          0                                            
    __________________________________________________________________________________________________
    dense_5 (Dense)                 (None, 128)          17408       feature_input[0][0]              
    __________________________________________________________________________________________________
    leaky_re_lu_5 (LeakyReLU)       (None, 128)          0           dense_5[0][0]                    
    __________________________________________________________________________________________________
    dense_6 (Dense)                 (None, 256)          33024       leaky_re_lu_5[0][0]              
    __________________________________________________________________________________________________
    leaky_re_lu_6 (LeakyReLU)       (None, 256)          0           dense_6[0][0]                    
    __________________________________________________________________________________________________
    dense_7 (Dense)                 (None, 512)          131584      leaky_re_lu_6[0][0]              
    __________________________________________________________________________________________________
    leaky_re_lu_7 (LeakyReLU)       (None, 512)          0           dense_7[0][0]                    
    __________________________________________________________________________________________________
    dense_1 (Dense)                 (None, 128)          17408       feature_input[0][0]              
    __________________________________________________________________________________________________
    dense_8 (Dense)                 (None, 540)          277020      leaky_re_lu_7[0][0]              
    __________________________________________________________________________________________________
    leaky_re_lu_1 (LeakyReLU)       (None, 128)          0           dense_1[0][0]                    
    __________________________________________________________________________________________________
    leaky_re_lu_8 (LeakyReLU)       (None, 540)          0           dense_8[0][0]                    
    __________________________________________________________________________________________________
    dense_2 (Dense)                 (None, 256)          33024       leaky_re_lu_1[0][0]              
    __________________________________________________________________________________________________
    reshape_2 (Reshape)             (None, 9, 4, 15)     0           leaky_re_lu_8[0][0]              
    __________________________________________________________________________________________________
    leaky_re_lu_2 (LeakyReLU)       (None, 256)          0           dense_2[0][0]                    
    __________________________________________________________________________________________________
    lambda_1 (Lambda)               (None, 4, 9, 9)      0           reshape_2[0][0]                  
    __________________________________________________________________________________________________
    dense_3 (Dense)                 (None, 512)          131584      leaky_re_lu_2[0][0]              
    __________________________________________________________________________________________________
    flatten_1 (Flatten)             (None, 324)          0           lambda_1[0][0]                   
    __________________________________________________________________________________________________
    leaky_re_lu_3 (LeakyReLU)       (None, 512)          0           dense_3[0][0]                    
    __________________________________________________________________________________________________
    dense_9 (Dense)                 (None, 324)          105300      flatten_1[0][0]                  
    __________________________________________________________________________________________________
    dense_4 (Dense)                 (None, 45)           23085       leaky_re_lu_3[0][0]              
    __________________________________________________________________________________________________
    leaky_re_lu_9 (LeakyReLU)       (None, 324)          0           dense_9[0][0]                    
    __________________________________________________________________________________________________
    leaky_re_lu_4 (LeakyReLU)       (None, 45)           0           dense_4[0][0]                    
    __________________________________________________________________________________________________
    reshape_3 (Reshape)             (None, 4, 9, 9)      0           leaky_re_lu_9[0][0]              
    __________________________________________________________________________________________________
    reshape_1 (Reshape)             (None, 9, 5)         0           leaky_re_lu_4[0][0]              
    __________________________________________________________________________________________________
    lambda_2 (Lambda)               (None, 9, 9, 4)      0           reshape_3[0][0]                  
    __________________________________________________________________________________________________
    output_1 (Lambda)               (None, 9, 5)         0           reshape_1[0][0]                  
    __________________________________________________________________________________________________
    output_2 (Lambda)               (None, 9, 9, 4)      0           lambda_2[0][0]                   
    ==================================================================================================
    Total params: 769,437
    Trainable params: 769,437
    Non-trainable params: 0
    __________________________________________________________________________________________________