…
Output shape 1:  (100, 64, 128, 128)
Output shape 2:  (100, 64, 256, 256)
ipykernel_launcher.py:140: UserWarning: Output "conv2d_186" missing from loss dictionary. We assume this was done on purpose, and we will not be expecting any data to be passed to "conv2d_186" during training.
__________________________________________________________________________________________________
Layer (type)                    Output Shape         Param #     Connected to                     
==================================================================================================
input_38 (InputLayer)           (None, 1, 256, 256)  0                                            
__________________________________________________________________________________________________
conv2d_182 (Conv2D)             (None, 1, 256, 256)  5           input_38[0][0]                   
__________________________________________________________________________________________________
conv2d_183 (Conv2D)             (None, 64, 128, 128) 320         conv2d_182[0][0]                 
__________________________________________________________________________________________________
conv2d_184 (Conv2D)             (None, 64, 128, 128) 36928       conv2d_183[0][0]                 
__________________________________________________________________________________________________
conv2d_185 (Conv2D)             (None, 64, 128, 128) 36928       conv2d_184[0][0]                 
__________________________________________________________________________________________________
flatten_37 (Flatten)            (None, 1048576)      0           conv2d_185[0][0]                 
__________________________________________________________________________________________________
dense_181 (Dense)               (None, 128)          134217856   flatten_37[0][0]                 
__________________________________________________________________________________________________
dense_182 (Dense)               (None, 2)            258         dense_181[0][0]                  
__________________________________________________________________________________________________
dense_183 (Dense)               (None, 2)            258         dense_181[0][0]                  
__________________________________________________________________________________________________
lambda_37 (Lambda)              (None, 2)            0           dense_182[0][0]                  
                                                                 dense_183[0][0]                  
__________________________________________________________________________________________________
dense_184 (Dense)               (None, 128)          384         lambda_37[0][0]                  
__________________________________________________________________________________________________
dense_185 (Dense)               (None, 1048576)      135266304   dense_184[0][0]                  
__________________________________________________________________________________________________
reshape_37 (Reshape)            (None, 64, 128, 128) 0           dense_185[0][0]                  
__________________________________________________________________________________________________
conv2d_transpose_109 (Conv2DTra (None, 64, 128, 128) 36928       reshape_37[0][0]                 
__________________________________________________________________________________________________
conv2d_transpose_110 (Conv2DTra (None, 64, 128, 128) 36928       conv2d_transpose_109[0][0]       
__________________________________________________________________________________________________
conv2d_transpose_111 (Conv2DTra (None, 64, 257, 257) 36928       conv2d_transpose_110[0][0]       
__________________________________________________________________________________________________
conv2d_186 (Conv2D)             (None, 1, 256, 256)  257         conv2d_transpose_111[0][0]       
==================================================================================================
Total params: 269,670,282
Trainable params: 269,670,282
Non-trainable params: 0
__________________________________________________________________________________________________
Found 38585 images belonging to 1 classes.
Found 5000 images belonging to 1 classes.
…
