…
Inputs shapes: [(12100, 200), (), (32, 200), (200, 200), ()]
Inputs strides: [(800, 4), (), (113600, 4), (800, 4), ()]
Inputs values: ['not shown', array(1.0, dtype=float32), 'not shown', 'not shown', array(1.0, dtype=float32)]
Outputs clients: [[Elemwise{Add}[(0, 2)](InplaceDimShuffle{x,0}.0, InplaceDimShuffle{x,0}.0, Gemm{inplace}.0)]]
In case its useful, here is the output of model.summary(),
--------------------------------------------------------------------------------
Layer (name)                  Output Shape                  Param #
--------------------------------------------------------------------------------
Layer (inputx)                (None, 110)                   0
Layer (inputy)                (None, 32)                    0
Embedding (x_emb)             (None, 110, 256)              2560000
Embedding (y_emb)             (None, 32, 256)               2560000
LSTM (forward)                (None, 142, 100)              142800
LSTM (backward)               (None, 142, 100)              142800
Dropout (dropout)             (None, 142, 200)              0
Lambda (h_n)                  (None, 200)                   0
Lambda (Y)                    (None, 110, 200)              0
RepeatVector (H_n_cross_e)    (None, 110, 200)              0
TimeDistributedDense (WY)     (None, 110, 200)              40200
TimeDistributedDense (Whn)    (None, 110, 200)              40200
TimeDistributedDense (M)      (None, 110, 200)              80200
TimeDistributedDense (_alpha) (None, 110, 1)                201
Reshape (alpha)               (None, 110)                   0
Lambda (_r)                   (None, 200, 1)                0
Reshape (r)                   (None, 200)                   0
Dense (Wr)                    (None, 200)                   40200
Dense (Wh)                    (None, 200)                   40200
Dense (h_star)                (None, 200)                   40200
Dense (out)                   (None, 1)                     201
--------------------------------------------------------------------------------
Total params: 5687202
Please make sure that the boxes below are checked before you submit your issue. Thank you!
Check that you are up-to-date with the master branch of Keras. You can update with:
pip install git+git://github.com/fchollet/keras.git --upgrade --no-deps
If running on Theano, check that you are up-to-date with the master branch of Theano. You can update with:
…
