…
(virtual-py3) yaurehman2@mybeast:~/PycharmProjects/face_anti_sp_newidea$ CUDA_VISIBLE_DEVICES=0 python mnist_custompooling.py
/home/yaurehman2/.virtualenvs/virtual-py3/lib/python3.5/site-packages/h5py/init.py:36: FutureWarning: Conversion of the second argument of issubdtype from float to np.floating is deprecated. In future, it will be treated as np.float64 == np.dtype(float).type.
from ._conv import register_converters as _register_converters
Using TensorFlow backend.
x_train shape: (60000, 28, 28, 1)
60000 train samples
10000 test samples
Tensor("gated_pool_1/Sigmoid:0", shape=(?, 14, 14, 64), dtype=float32)
Layer (type) Output Shape Param #
input_1 (InputLayer) (None, 28, 28, 1) 0
conv2d_1 (Conv2D) (None, 28, 28, 32) 320
conv2d_2 (Conv2D) (None, 28, 28, 64) 18496
gated_pool_1 (gated_pool) (None, 14, 14, 64) 4
dropout_1 (Dropout) (None, 14, 14, 64) 0
flatten_1 (Flatten) (None, 12544) 0
dense_1 (Dense) (None, 128) 1605760
dropout_2 (Dropout) (None, 128) 0
dense_2 (Dense) (None, 10) 1290
Total params: 1,625,870
Trainable params: 1,625,870
Non-trainable params: 0
None
Train on 60000 samples, validate on 10000 samples
Epoch 1/12
2018-08-02 17:46:05.217702: I tensorflow/core/platform/cpu_feature_guard.cc:140] Your CPU supports instructions that this TensorFlow binary was not compiled to use: AVX2 AVX512F FMA
2018-08-02 17:46:05.619348: I tensorflow/core/common_runtime/gpu/gpu_device.cc:1344] Found device 0 with properties:
…
