…
###############################
### Output Layer and Compile
###############################

output_ = Dense(num_answers)(Fphi_)
output_ = Activation('sigmoid')(output_)

RelationNet_ = Model(inputs=[input_1,input_2],outputs=[output_])

RelationNet_.compile(optimizer=Adam(lr=learningRate), loss='binary_crossentropy', metrics=['accuracy'])

RelationNet_.summary()
Output:
>>> RelationNet_.summary()
_________________________________________________________________
Layer (type)                 Output Shape              Param #   
=================================================================
input_1 (InputLayer)         (None, 1, 16, 112, 112)   0         
_________________________________________________________________
conv3d_1 (Conv3D)            (None, 16, 16, 112, 112)  448       
_________________________________________________________________
batch_normalization_1 (Batch (None, 16, 16, 112, 112)  448       
_________________________________________________________________
activation_1 (Activation)    (None, 16, 16, 112, 112)  0         
_________________________________________________________________
max_pooling3d_1 (MaxPooling3 (None, 16, 8, 56, 56)     0         
_________________________________________________________________
conv3d_2 (Conv3D)            (None, 32, 8, 56, 56)     13856     
_________________________________________________________________
batch_normalization_2 (Batch (None, 32, 8, 56, 56)     224       
_________________________________________________________________
activation_2 (Activation)    (None, 32, 8, 56, 56)     0         
_________________________________________________________________
max_pooling3d_2 (MaxPooling3 (None, 32, 4, 28, 28)     0         
_________________________________________________________________
conv3d_3 (Conv3D)            (None, 64, 4, 28, 28)     55360     
_________________________________________________________________
batch_normalization_3 (Batch (None, 64, 4, 28, 28)     112       
_________________________________________________________________
activation_3 (Activation)    (None, 64, 4, 28, 28)     0         
_________________________________________________________________
max_pooling3d_3 (MaxPooling3 (None, 64, 2, 14, 14)     0         
_________________________________________________________________
activation_12 (Activation)   (None, 64, 2, 14, 14)     0         
=================================================================
Total params: 70,448
Trainable params: 70,056
Non-trainable params: 392
_________________________________________________________________

RelationNet_.layers
[<keras.engine.topology.InputLayer object at 0x7f2737b20978>, <keras.layers.convolutional.Conv3D object at 0x7f26f13f7898>, <keras.layers.normalization.BatchNormaliz
…
