…
iterate = K.function([initial_model.input], [pooled_grads, last_conv_layer.output[0]])

# These are the values of these two quantities, as Numpy arrays,
# given our sample image of two elephants
pooled_grads_value, conv_layer_output_value = iterate([x])
but then I get the following error:
Invalid argument: Shape [-1,7,7,2048] has negative dimensions
Here is the summary of my loaded model
_________________________________________________________________
Layer (type)                 Output Shape              Param #   
=================================================================
input_7 (InputLayer)         (None, 7, 7, 2048)        0         
_________________________________________________________________
conv2d_13 (Conv2D)           (None, 7, 7, 30)          61470     
_________________________________________________________________
conv2d_14 (Conv2D)           (None, 7, 7, 60)          1860      
_________________________________________________________________
average_pooling2d_7 (Average (None, 1, 1, 60)          0         
_________________________________________________________________
flatten_7 (Flatten)          (None, 60)                0         
_________________________________________________________________
dense_7 (Dense)              (None, 9)                 549       
=================================================================
Total params: 63,879
Trainable params: 63,879
Non-trainable params: 0
Any thoughts on this ?