…
    model.add(TimeDistributed(Dense(1,activation='relu')))
    return model
    model=get_model()
model.summary()
rms=RMSprop(lr=0.001)
model.compile(optimizer=rms,loss='mean_squared_error')
for e in range(10):#epoch
    for X,Y in gen('data/train.mp4','train'):#<- this is my custom batch generator
        l=model.train:_on_batch(X,Y)
    model.reset_states()
It gives me :
> Using TensorFlow backend.
> _________________________________________________________________
> Layer (type)                 Output Shape              Param #   
> =================================================================
> time_distributed_1 (TimeDist (None, 100, 58, 78, 10)   100       
> _________________________________________________________________
> time_distributed_2 (TimeDist (None, 100, 58, 78, 10)   0         
> _________________________________________________________________
> time_distributed_3 (TimeDist (None, 100, 56, 76, 10)   910       
> _________________________________________________________________
> time_distributed_4 (TimeDist (None, 100, 56, 76, 10)   0         
> _________________________________________________________________
> time_distributed_5 (TimeDist (None, 100, 28, 38, 10)   0         
> _________________________________________________________________
> time_distributed_6 (TimeDist (None, 100, 28, 38, 10)   0         
> _________________________________________________________________
> time_distributed_7 (TimeDist (None, 100, 10640)        0         
> _________________________________________________________________
> lstm_1 (LSTM)                (None, 100, 1000)         46564000  
> _________________________________________________________________
> time_distributed_8 (TimeDist (None, 100, 1)            1001      
> =================================================================
> Total params: 46,566,011
> Trainable params: 46,566,011
> Non-trainable params: 0
> _________________________________________________________________
> epoca:0
> (1, 100, 60, 80, 1)
> (1, 100, 1)
> 2017-05-03 16:39:04.437304: W tensorflow/core/framework/op_kernel.cc:1152] Invalid argument: You must feed a value for placeholder tensor 'time_distributed_6/keras_learning_phase' with dtype bool
…
