vladimircape commented on 29 Mar 2017
I tried to run
https://github.com/fchollet/keras/blob/master/examples/image_ocr.py
I used Theano '0.9.0.dev-bd1a12ed706a4ef1a2e1b8f06565737a37eafb99
Python3.5
Ubuntu16
Using gpu device 0: GeForce GTX 1060 6GB (CNMeM is enabled with initial size: 20.0% of memory, cuDNN 5005
I start train(run_name, 0, 20, 128)
and got
`Untaring file...
Layer (type) Output Shape Param # Connected to
the_input (InputLayer) (None, 128, 64, 1) 0
conv1 (Conv2D) (None, 128, 64, 16) 160
max1 (MaxPooling2D) (None, 64, 32, 16) 0
conv2 (Conv2D) (None, 64, 32, 16) 2320
max2 (MaxPooling2D) (None, 32, 16, 16) 0
reshape (Reshape) (None, 32, 256) 0
dense1 (Dense) (None, 32, 32) 8224
gru1 (GRU) (None, 32, 512) 837120
gru1_b (GRU) (None, 32, 512) 837120
add_1 (Add) (None, 32, 512) 0
gru2 (GRU) (None, 32, 512) 1574400
gru2_b (GRU) (None, 32, 512) 1574400
concatenate_1 (Concatenate) (None, 32, 1024) 0
dense2 (Dense) (None, 32, 28) 28700
softmax (Activation) (None, 32, 28) 0
Total params: 4,862,444.0
Trainable params: 4,862,444.0
Non-trainable params: 0.0
Epoch 1/20
389/12800 [..............................] - ETA: 6486s - loss: 8.0250
Exception in thread Thread-4:
Traceback (most recent call last):
File "/home/vshebuniayeu/anaconda3/lib/python3.5/threading.py", line 914, in _bootstrap_inner
self.run()
File "/home/vshebuniayeu/anaconda3/lib/python3.5/threading.py", line 862, in run
…
