…
average_pooling3d_8 (AveragePoo (None, 16, 8, 80, 80 0 reshape_8[0][0]
average_pooling3d_11 (AveragePo (None, 16, 8, 80, 80 0 reshape_11[0][0]
average_pooling3d_14 (AveragePo (None, 16, 8, 80, 80 0 reshape_14[0][0]
average_pooling3d_17 (AveragePo (None, 16, 8, 80, 80 0 reshape_17[0][0]
average_pooling3d_20 (AveragePo (None, 16, 8, 80, 80 0 reshape_20[0][0]
average_pooling3d_23 (AveragePo (None, 16, 8, 80, 80 0 reshape_23[0][0]
average_pooling3d_26 (AveragePo (None, 16, 8, 80, 80 0 reshape_26[0][0]
average_pooling3d_29 (AveragePo (None, 16, 8, 80, 80 0 reshape_29[0][0]
average_pooling3d_3 (AveragePoo (None, 16, 8, 8, 8) 0 average_pooling3d_2[0][0]
average_pooling3d_6 (AveragePoo (None, 16, 8, 8, 8) 0 average_pooling3d_5[0][0]
average_pooling3d_9 (AveragePoo (None, 16, 8, 8, 8) 0 average_pooling3d_8[0][0]
average_pooling3d_12 (AveragePo (None, 16, 8, 8, 8) 0 average_pooling3d_11[0][0]
average_pooling3d_15 (AveragePo (None, 16, 8, 8, 8) 0 average_pooling3d_14[0][0]
average_pooling3d_18 (AveragePo (None, 16, 8, 8, 8) 0 average_pooling3d_17[0][0]
average_pooling3d_21 (AveragePo (None, 16, 8, 8, 8) 0 average_pooling3d_20[0][0]
average_pooling3d_24 (AveragePo (None, 16, 8, 8, 8) 0 average_pooling3d_23[0][0]
average_pooling3d_27 (AveragePo (None, 16, 8, 8, 8) 0 average_pooling3d_26[0][0]
average_pooling3d_30 (AveragePo (None, 16, 8, 8, 8) 0 average_pooling3d_29[0][0]
reshape_3 (Reshape) (None, 8, 16, 8, 8) 0 average_pooling3d_3[0][0]
reshape_6 (Reshape) (None, 8, 16, 8, 8) 0 average_pooling3d_6[0][0]
reshape_9 (Reshape) (None, 8, 16, 8, 8) 0 average_pooling3d_9[0][0]
reshape_12 (Reshape) (None, 8, 16, 8, 8) 0 average_pooling3d_12[0][0]
reshape_15 (Reshape) (None, 8, 16, 8, 8) 0 average_pooling3d_15[0][0]
reshape_18 (Reshape) (None, 8, 16, 8, 8) 0 average_pooling3d_18[0][0]
reshape_21 (Reshape) (None, 8, 16, 8, 8) 0 average_pooling3d_21[0][0]
reshape_24 (Reshape) (None, 8, 16, 8, 8) 0 average_pooling3d_24[0][0]
reshape_27 (Reshape) (None, 8, 16, 8, 8) 0 average_pooling3d_27[0][0]
reshape_30 (Reshape) (None, 8, 16, 8, 8) 0 average_pooling3d_30[0][0]
concatenate_1 (Concatenate) (None, 8, 16, 8, 80) 0 reshape_3[0][0]
reshape_6[0][0]
reshape_9[0][0]
reshape_12[0][0]
reshape_15[0][0]
reshape_18[0][0]
reshape_21[0][0]
reshape_24[0][0]
reshape_27[0][0]
reshape_30[0][0]
reshape_31 (Reshape) (None, 8, 10240) 0 concatenate_1[0][0]
time_distributed_1 (TimeDistrib (None, 8, 8) 81928 reshape_31[0][0]
dropout_1 (Dropout) (None, 8, 8) 0 time_distributed_1[0][0]
time_distributed_2 (TimeDistrib (None, 8, 8) 72 dropout_1[0][0]
dropout_2 (Dropout) (None, 8, 8) 0 time_distributed_2[0][0]
time_distributed_3 (TimeDistrib (None, 8, 2) 18 dropout_2[0][0]
Total params: 375,138
Trainable params: 370,338
Non-trainable params: 4,800
Thank you!