…
Outputs clients: [[Sum{acc_dtype=int64}(Elemwise{Composite{EQ(i0, RoundHalfAwayFromZero(i1))}}.0)]]
Does Keras not allow you to have different y_true and y_pred shapes? My cost function requires a singular output of my network and must calculate the cost against a y_true matrix of shape (batch_size,3).
Here is the output of model.summary():
____________________________________________________________________________________________________
Layer (type)                       Output Shape        Param #     Connected to                     
===================================================================================================
convolution2d_1 (Convolution2D)    (None, 30, 1, 591)  1830        convolution2d_input_1[0][0]      
____________________________________________________________________________________________________
maxpooling2d_1 (MaxPooling2D)      (None, 30, 1, 147)  0           convolution2d_1[0][0]            
____________________________________________________________________________________________________
convolution2d_2 (Convolution2D)    (None, 30, 1, 138)  9030        maxpooling2d_1[0][0]             
____________________________________________________________________________________________________
maxpooling2d_2 (MaxPooling2D)      (None, 30, 1, 34)   0           convolution2d_2[0][0]            
____________________________________________________________________________________________________
convolution2d_3 (Convolution2D)    (None, 30, 1, 25)   9030        maxpooling2d_2[0][0]             
____________________________________________________________________________________________________
maxpooling2d_3 (MaxPooling2D)      (None, 30, 1, 6)    0           convolution2d_3[0][0]            
____________________________________________________________________________________________________
flatten_1 (Flatten)                (None, 180)         0           maxpooling2d_3[0][0]             
____________________________________________________________________________________________________
dense_1 (Dense)                    (None, 20)          3620        flatten_1[0][0]                  
____________________________________________________________________________________________________
activation_1 (Activation)          (None, 20)          0           dense_1[0][0]                    
____________________________________________________________________________________________________
dense_2 (Dense)                    (None, 20)          420         activation_1[0][0]               
____________________________________________________________________________________________________
activation_2 (Activation)          (None, 20)          0           dense_2[0][0]                    
____________________________________________________________________________________________________
dense_3 (Dense)                    (None, 1)           21          activation_2[0][0]               
====================================================================================================
Total params: 23951
Thank you for the help!
3