…
Edit: The problem seems to be with tensorboard callback with histogram_freq=1, I will post a script to reproduce soon.
I'm encountering a weird error that I haven't been able to pinpoint yet. When fitting a model with fit_generator, at validation time it tries to allocate the entire validation set at once, leading to a memory error.
Here is the model specification:
Training data shape: (38478, 128, 128, 3) (38478, 17)
Validation data shape: (2000, 128, 128, 3) (2000, 17)
_________________________________________________________________
Layer (type)                 Output Shape              Param #
=================================================================
image (InputLayer)           (None, 128, 128, 3)       0
_________________________________________________________________
conv01 (Conv2D)              (None, 128, 128, 64)      1792
_________________________________________________________________
conv02 (Conv2D)              (None, 128, 128, 64)      36928
_________________________________________________________________
maxpool0 (MaxPooling2D)      (None, 32, 32, 64)        0
_________________________________________________________________
dropout0 (Dropout)           (None, 32, 32, 64)        0
_________________________________________________________________
conv11 (Conv2D)              (None, 32, 32, 128)       73856
_________________________________________________________________
conv12 (Conv2D)              (None, 32, 32, 128)       147584
_________________________________________________________________
maxpool1 (MaxPooling2D)      (None, 8, 8, 128)         0
_________________________________________________________________
dropout1 (Dropout)           (None, 8, 8, 128)         0
_________________________________________________________________
conv21 (Conv2D)              (None, 8, 8, 256)         295168
_________________________________________________________________
conv22 (Conv2D)              (None, 8, 8, 256)         590080
_________________________________________________________________
maxpool2 (MaxPooling2D)      (None, 2, 2, 256)         0
_________________________________________________________________
dropout2 (Dropout)           (None, 2, 2, 256)         0
_________________________________________________________________
flat-representation (Flatten (None, 1024)              0
_________________________________________________________________
sigmoid (Dense)              (None, 17)                17425
=================================================================
Total params: 1,162,833
Trainable params: 1,162,833
Non-trainable params: 0
_________________________________________________________________
The model is generated by:
def conv_conv_pool(img_size, classes, filters, pools=2, dropout=False):
    """Define the double convolution model."""
    with tf.name_scope("Input-image"):
        img_input = Input(shape=(img_size, img_size, 3), name="image")
…
