…
Please help me ,thanks a looooot!!!!!!!
anaconda2/lib/python2.7/site-packages/theano/gradient.py", line 967, in access_term_cache
output_grads = [access_grad_cache(var) for var in node.outputs]
  /home/ymd/dl/416/polardec16copy2D.py:160: UserWarning: You are creating a TensorVariable with float64 dtype. You requested an action via the Theano flag warn_float64={ignore,warn,raise,pdb}.
  return x + w
_________________________________________________________________
Layer (type)                 Output Shape              Param #   
=================================================================
modulator (Lambda)           (None, 1, 16, 16)         0         
_________________________________________________________________
noise (Lambda)               (None, 1, 16, 16)         0         
_________________________________________________________________
conv2d_7 (Conv2D)            (None, 64, 16, 16)        128       
_________________________________________________________________
batch_normalization_16 (Batc (None, 64, 16, 16)        256       
_________________________________________________________________
activation_13 (Activation)   (None, 64, 16, 16)        0         
_________________________________________________________________
conv2d_8 (Conv2D)            (None, 64, 14, 14)        36928     
_________________________________________________________________
batch_normalization_17 (Batc (None, 64, 14, 14)        256       
_________________________________________________________________
activation_14 (Activation)   (None, 64, 14, 14)        0         
_________________________________________________________________
dropout_10 (Dropout)         (None, 64, 14, 14)        0         
_________________________________________________________________
flatten_4 (Flatten)          (None, 12544)             0         
_________________________________________________________________
batch_normalization_18 (Batc (None, 12544)             50176     
_________________________________________________________________
dense_10 (Dense)             (None, 512)               6423040   
_________________________________________________________________
batch_normalization_19 (Batc (None, 512)               2048      
_________________________________________________________________
activation_15 (Activation)   (None, 512)               0         
_________________________________________________________________
dropout_11 (Dropout)         (None, 512)               0         
_________________________________________________________________
dense_11 (Dense)             (None, 256)               131328    
_________________________________________________________________
batch_normalization_20 (Batc (None, 256)               1024      
_________________________________________________________________
activation_16 (Activation)   (None, 256)               0         
_________________________________________________________________
dropout_12 (Dropout)         (None, 256)               0         
_________________________________________________________________
dense_12 (Dense)             (None, 8)                 2056      
=================================================================
Total params: 6,647,240.0
Trainable params: 6,620,360.0
Non-trainable params: 26,880.0
_________________________________________________________________
train....
Traceback (most recent call last):

  File "<ipython-input-6-1dfb42fb5a67>", line 1, in <module>
    runfile('/home/ymd/dl/416/polardec16copy2D.py', wdir='/home/ymd/dl/416')
…
