…
residual4 = UpSampling2D(name='upsample4')(residual4)

conv0_1_3_batch_norm = BatchNormalization(axis=1, name='batch5')(conv0_1_3)
merge4 = merge((conv0_1_3_batch_norm, residual4), mode='concat', name='merge4', concat_axis=0)
residual5 = Convolution2D(3, 1, 1, activation='relu', name='residual5', border_mode='same')(merge4)

model = Model(input=first_input, output=residual5)
and here's the Model Summary:
Layer (type)                     Output Shape          Param #     Connected to                     
====================================================================================================
input_1 (InputLayer)             (None, 1, 224, 224)   0                                            
____________________________________________________________________________________________________
conv0_1_3 (Convolution2D)        (None, 3, 224, 224)   30          input_1[0][0]                    
____________________________________________________________________________________________________
conv1_1 (Convolution2D)          (None, 64, 224, 224)  1792        conv0_1_3[0][0]                  
____________________________________________________________________________________________________
conv1_2 (Convolution2D)          (None, 64, 224, 224)  36928       conv1_1[0][0]                    
____________________________________________________________________________________________________
maxpooling2d_1 (MaxPooling2D)    (None, 64, 112, 112)  0           conv1_2[0][0]                    
____________________________________________________________________________________________________
conv2_1 (Convolution2D)          (None, 128, 112, 112) 73856       maxpooling2d_1[0][0]             
____________________________________________________________________________________________________
conv2_2 (Convolution2D)          (None, 128, 112, 112) 147584      conv2_1[0][0]                    
____________________________________________________________________________________________________
maxpooling2d_2 (MaxPooling2D)    (None, 128, 56, 56)   0           conv2_2[0][0]                    
____________________________________________________________________________________________________
conv3_1 (Convolution2D)          (None, 256, 56, 56)   295168      maxpooling2d_2[0][0]             
____________________________________________________________________________________________________
conv3_2 (Convolution2D)          (None, 256, 56, 56)   590080      conv3_1[0][0]                    
____________________________________________________________________________________________________
conv3_3 (Convolution2D)          (None, 256, 56, 56)   590080      conv3_2[0][0]                    
____________________________________________________________________________________________________
maxpooling2d_3 (MaxPooling2D)    (None, 256, 28, 28)   0           conv3_3[0][0]                    
____________________________________________________________________________________________________
conv4_1 (Convolution2D)          (None, 512, 28, 28)   1180160     maxpooling2d_3[0][0]             
____________________________________________________________________________________________________
conv4_2 (Convolution2D)          (None, 512, 28, 28)   2359808     conv4_1[0][0]                    
____________________________________________________________________________________________________
conv4_3 (Convolution2D)          (None, 512, 28, 28)   2359808     conv4_2[0][0]                    
____________________________________________________________________________________________________
maxpooling2d_4 (MaxPooling2D)    (None, 512, 14, 14)   0           conv4_3[0][0]                    
____________________________________________________________________________________________________
batch1 (BatchNormalization)      (None, 512, 14, 14)   1024        maxpooling2d_4[0][0]             
____________________________________________________________________________________________________
residual1 (Convolution2D)        (None, 256, 14, 14)   1179904     batch1[0][0]                     
____________________________________________________________________________________________________
batch2 (BatchNormalization)      (None, 256, 28, 28)   512         maxpooling2d_3[0][0]             
____________________________________________________________________________________________________
upsample1 (UpSampling2D)         (None, 256, 28, 28)   0           residual1[0][0]                  
____________________________________________________________________________________________________
merge1 (Merge)                   (None, 256, 28, 28)   0           batch2[0][0]                     
                                                                   upsample1[0][0]                  
____________________________________________________________________________________________________
residual2 (Convolution2D)        (None, 128, 28, 28)   295040      merge1[0][0]                     
____________________________________________________________________________________________________
batch3 (BatchNormalization)      (None, 128, 56, 56)   256         maxpooling2d_2[0][0]             
____________________________________________________________________________________________________
upsample2 (UpSampling2D)         (None, 128, 56, 56)   0           residual2[0][0]                  
____________________________________________________________________________________________________
merge2 (Merge)                   (None, 128, 56, 56)   0           batch3[0][0]                     
                                                                   upsample2[0][0]                  
____________________________________________________________________________________________________
residual3 (Convolution2D)        (None, 64, 56, 56)    73792       merge2[0][0]                     
____________________________________________________________________________________________________
batch4 (BatchNormalization)      (None, 64, 112, 112)  128         maxpooling2d_1[0][0]             
____________________________________________________________________________________________________
upsample3 (UpSampling2D)         (None, 64, 112, 112)  0           residual3[0][0]                  
____________________________________________________________________________________________________
merge3 (Merge)                   (None, 64, 112, 112)  0           batch4[0][0]                     
                                                                   upsample3[0][0]                  
____________________________________________________________________________________________________
residual4 (Convolution2D)        (None, 3, 112, 112)   1731        merge3[0][0]                     
____________________________________________________________________________________________________
batch5 (BatchNormalization)      (None, 3, 224, 224)   6           conv0_1_3[0][0]                  
____________________________________________________________________________________________________
upsample4 (UpSampling2D)         (None, 3, 224, 224)   0           residual4[0][0]                  
____________________________________________________________________________________________________
merge4 (Merge)                   (None, 3, 224, 224)   0           batch5[0][0]                     
                                                                   upsample4[0][0]                  
____________________________________________________________________________________________________
residual5 (Convolution2D)        (None, 3, 224, 224)   12          merge4[0][0]                     
====================================================================================================
Total params: 9187699
I don't know what I'm doing wrong since the summary fits exactly with what I have in mind but no matter what, I keep getting this error :
ValueError: GpuElemwise. Input dimension mis-match. Input 2 (indices start at 0) has shape[0] == 1, but the output's size on that axis is 5.
…
