…
The model summary gives the table as follows:
Layer (type) Output Shape Param # Connected to
convolution2d_11 (Convolution2D) (None, 32, 76L, 76L) 832 convolution2d_input_6[0][0]
activation_21 (Activation) (None, 32, 76L, 76L) 0 convolution2d_11[0][0]
maxpooling2d_11 (MaxPooling2D) (None, 32, 38L, 38L) 0 activation_21[0][0]
convolution2d_12 (Convolution2D) (None, 64, 34L, 34L) 51264 maxpooling2d_11[0][0]
activation_22 (Activation) (None, 64, 34L, 34L) 0 convolution2d_12[0][0]
maxpooling2d_12 (MaxPooling2D) (None, 64, 17L, 17L) 0 activation_22[0][0]
dropout_11 (Dropout) (None, 64, 17L, 17L) 0 maxpooling2d_12[0][0]
flatten_6 (Flatten) (None, 18496) 0 dropout_11[0][0]
dense_11 (Dense) (None, 100) 1849700 flatten_6[0][0]
activation_23 (Activation) (None, 100) 0 dense_11[0][0]
dropout_12 (Dropout) (None, 100) 0 activation_23[0][0]
dense_12 (Dense) (None, 2) 202 dropout_12[0][0]
activation_24 (Activation) (None, 2) 0 dense_12[0][0]
Total params: 1901998
(I cannot insert a well-formatted table. I also post the issue at: https://stackoverflow.com/questions/44608552/keras-cnn-model-parameters-caculation)
About the table, I have two confusions: 1) I am not clear of how the number of parameters of the second convolution layer (i.e., 51264) is computed. I thought the number would be (5*5 + 1)*64 = 1664, since the convolution kernel is 5 * 5 in size and 64 feature maps are to be extracted; 2) Besides, since I have already implemented dropout, why does the parameter table not reflect this point. It seems the parameter number without dropout is given.
…
