…
    kl_loss = - 0.5 * K.mean(1 + z_log_var - K.square(z_mean) - K.exp(z_log_var), axis=-1)
    return xent_loss + kl_loss

vae = Model(x, x_decoded_mean_squash)
vae.compile(optimizer='adadelta', loss=vae_loss)
vae.summary()
However, I got error:
Using TensorFlow backend.
____________________________________________________________________________________________________
Layer (type)                     Output Shape          Param #     Connected to                     
====================================================================================================
input_1 (InputLayer)             (2, 104, 104, 1)      0                                            
____________________________________________________________________________________________________
convolution2d_1 (Convolution2D)  (2, 104, 104, 1)      5           input_1[0][0]                    
____________________________________________________________________________________________________
maxpooling2d_1 (MaxPooling2D)    (2, 52, 52, 1)        0           convolution2d_1[0][0]            
____________________________________________________________________________________________________
convolution2d_2 (Convolution2D)  (2, 26, 26, 16)       80          maxpooling2d_1[0][0]             
____________________________________________________________________________________________________
maxpooling2d_2 (MaxPooling2D)    (2, 13, 13, 16)       0           convolution2d_2[0][0]            
____________________________________________________________________________________________________
convolution2d_3 (Convolution2D)  (2, 13, 13, 8)        1160        maxpooling2d_2[0][0]             
____________________________________________________________________________________________________
maxpooling2d_3 (MaxPooling2D)    (2, 7, 7, 8)          0           convolution2d_3[0][0]            
____________________________________________________________________________________________________
convolution2d_4 (Convolution2D)  (2, 7, 7, 4)          292         maxpooling2d_3[0][0]             
____________________________________________________________________________________________________
flatten_1 (Flatten)              (2, 196)              0           convolution2d_4[0][0]            
____________________________________________________________________________________________________
dense_1 (Dense)                  (2, 32)               6304        flatten_1[0][0]                  
____________________________________________________________________________________________________
dense_2 (Dense)                  (2, 2)                66          dense_1[0][0]                    
____________________________________________________________________________________________________
dense_3 (Dense)                  (2, 2)                66          dense_1[0][0]                    
____________________________________________________________________________________________________
lambda_1 (Lambda)                (2, 2)                0           dense_2[0][0]                    
                                                                  dense_3[0][0]                    
____________________________________________________________________________________________________
dense_4 (Dense)                  (2, 32)               96          lambda_1[0][0]                   
____________________________________________________________________________________________________
dense_5 (Dense)                  (2, 196)              6468        dense_4[0][0]                    
____________________________________________________________________________________________________
reshape_1 (Reshape)              (2, 7, 7, 4)          0           dense_5[0][0]                    
____________________________________________________________________________________________________
deconvolution2d_1 (Deconvolution (2, 14, 14, 4)        148         reshape_1[0][0]                  
____________________________________________________________________________________________________
upsampling2d_1 (UpSampling2D)    (2, 28, 28, 4)        0           deconvolution2d_1[0][0]          
____________________________________________________________________________________________________
deconvolution2d_2 (Deconvolution (2, 56, 56, 8)        296         upsampling2d_1[0][0]             
____________________________________________________________________________________________________
deconvolution2d_3 (Deconvolution (2, 105, 105, 16)     528         deconvolution2d_2[0][0]          
____________________________________________________________________________________________________
convolution2d_5 (Convolution2D)  (2, 104, 104, 1)      65          deconvolution2d_3[0][0]          
====================================================================================================
Total params: 15574
____________________________________________________________________________________________________
('x_train.shape:', (40, 104, 104, 1))
('x_test.shape:', (10, 104, 104, 1))
Traceback (most recent call last):
 File "/home/ruanxt/tests/code/conv_variational_autoencoder.py", line 159, in <module>
…
