…
Then, I wanted to turn back to the old model. When I started to train the model, It gives the error:
InvalidArgumentError: Incompatible shapes: [32,3,3] vs. [32,3] [[{{node Nadam/gradients/loss/time_distributed_loss/SquaredDifference_grad/BroadcastGradientArgs}}]]
As a running environment, I am using Google Colab with TPU cores.
This is how the model looks like:
Model: "sequential"
_________________________________________________________________
Layer (type)                 Output Shape              Param #   
=================================================================
lstm (LSTM)                  (None, 3, 16)             1280      
_________________________________________________________________ 
dropout (Dropout)            (None, 3, 16)             0         
_________________________________________________________________
lstm_1 (LSTM)                (None, 3, 32)             6272      
_________________________________________________________________
dropout_1 (Dropout)          (None, 3, 32)             0         
_________________________________________________________________
time_distributed (TimeDistri (None, 3, 3)              99        
=================================================================
Total params: 7,651
Trainable params: 7,651
Non-trainable params: 0
I also post this issue on StackOverflow