…
plt.legend(['train', 'test'], loc='upper left')
plt.show()
# summarize history for loss
plt.plot(history.history['loss'])
plt.plot(history.history['val_loss'])
plt.title('model loss')
plt.ylabel('loss')
plt.xlabel('epoch')
plt.legend(['train', 'test'], loc='upper left')
plt.show()
Training Result
Found 42 images belonging to 10 classes.
Found 23 images belonging to 10 classes.
Found 31 images belonging to 10 classes.
_________________________________________________________________
Layer (type)                 Output Shape              Param #
=================================================================
zero_padding2d_1 (ZeroPaddin (None, 226, 226, 3)       0
_________________________________________________________________
conv2d_1 (Conv2D)            (None, 224, 224, 64)      1792
_________________________________________________________________
zero_padding2d_2 (ZeroPaddin (None, 226, 226, 64)      0
_________________________________________________________________
conv2d_2 (Conv2D)            (None, 224, 224, 64)      36928
_________________________________________________________________
max_pooling2d_1 (MaxPooling2 (None, 112, 112, 64)      0
_________________________________________________________________
zero_padding2d_3 (ZeroPaddin (None, 114, 114, 64)      0
_________________________________________________________________
conv2d_3 (Conv2D)            (None, 112, 112, 128)     73856
_________________________________________________________________
zero_padding2d_4 (ZeroPaddin (None, 114, 114, 128)     0
_________________________________________________________________
conv2d_4 (Conv2D)            (None, 112, 112, 128)     147584
_________________________________________________________________
max_pooling2d_2 (MaxPooling2 (None, 56, 56, 128)       0
_________________________________________________________________
zero_padding2d_5 (ZeroPaddin (None, 58, 58, 128)       0
_________________________________________________________________
conv2d_5 (Conv2D)            (None, 56, 56, 256)       295168
_________________________________________________________________
zero_padding2d_6 (ZeroPaddin (None, 58, 58, 256)       0
_________________________________________________________________
conv2d_6 (Conv2D)            (None, 56, 56, 256)       590080
_________________________________________________________________
zero_padding2d_7 (ZeroPaddin (None, 58, 58, 256)       0
_________________________________________________________________
conv2d_7 (Conv2D)            (None, 56, 56, 256)       590080
_________________________________________________________________
max_pooling2d_3 (MaxPooling2 (None, 28, 28, 256)       0
_________________________________________________________________
zero_padding2d_8 (ZeroPaddin (None, 30, 30, 256)       0
_________________________________________________________________
conv2d_8 (Conv2D)            (None, 28, 28, 512)       1180160
_________________________________________________________________
zero_padding2d_9 (ZeroPaddin (None, 30, 30, 512)       0
_________________________________________________________________
conv2d_9 (Conv2D)            (None, 28, 28, 512)       2359808
_________________________________________________________________
zero_padding2d_10 (ZeroPaddi (None, 30, 30, 512)       0
_________________________________________________________________
conv2d_10 (Conv2D)           (None, 28, 28, 512)       2359808
_________________________________________________________________
max_pooling2d_4 (MaxPooling2 (None, 14, 14, 512)       0
_________________________________________________________________
zero_padding2d_11 (ZeroPaddi (None, 16, 16, 512)       0
_________________________________________________________________
conv2d_11 (Conv2D)           (None, 14, 14, 512)       2359808
_________________________________________________________________
zero_padding2d_12 (ZeroPaddi (None, 16, 16, 512)       0
_________________________________________________________________
conv2d_12 (Conv2D)           (None, 14, 14, 512)       2359808
_________________________________________________________________
zero_padding2d_13 (ZeroPaddi (None, 16, 16, 512)       0
_________________________________________________________________
conv2d_13 (Conv2D)           (None, 14, 14, 512)       2359808
_________________________________________________________________
max_pooling2d_5 (MaxPooling2 (None, 7, 7, 512)         0
_________________________________________________________________
flatten_1 (Flatten)          (None, 25088)             0
_________________________________________________________________
dense_1 (Dense)              (None, 4096)              102764544
_________________________________________________________________
dropout_1 (Dropout)          (None, 4096)              0
_________________________________________________________________
dense_2 (Dense)              (None, 4096)              16781312
_________________________________________________________________
dropout_2 (Dropout)          (None, 4096)              0
_________________________________________________________________
predictions (Dense)          (None, 10)                40970
=================================================================
Total params: 134,301,514
Trainable params: 134,301,514
Non-trainable params: 0
_________________________________________________________________
Epoch 1/5

 1/10 [==>...........................] - ETA: 1:11 - loss: 4.1517 - acc: 0.1667
 2/10 [=====>........................] - ETA: 1:10 - loss: 3.7662 - acc: 0.1667
 3/10 [========>.....................] - ETA: 1:02 - loss: 3.6699 - acc: 0.1944
…
