…
  File "/Users/alex/classifier/lib/python2.7/site-packages/tensorflow/python/framework/ops.py", line 1228, in __init__
    self._traceback = _extract_stack()

InvalidArgumentError (see above for traceback): indices[18,135] = 621 is not in [0, 621)
  [[Node: embedding_1/Gather = Gather[Tindices=DT_INT32, Tparams=DT_FLOAT, validate_indices=true, _device="/job:localhost/replica:0/task:0/cpu:0"](embedding_1/embeddings/read, _recv_input_1_0)]]
Summary:
> _________________________________________________________________
> Layer (type)                 Output Shape              Param #   
> =================================================================
> input_1 (InputLayer)         (None, 140)               0         
> _________________________________________________________________
> embedding_1 (Embedding)      (None, 140, 300)          186300    
> _________________________________________________________________
> conv1d_1 (Conv1D)            (None, 139, 128)          76928     
> _________________________________________________________________
> max_pooling1d_1 (MaxPooling1 (None, 69, 128)           0         
> _________________________________________________________________
> conv1d_2 (Conv1D)            (None, 68, 128)           32896     
> _________________________________________________________________
> max_pooling1d_2 (MaxPooling1 (None, 34, 128)           0         
> _________________________________________________________________
> conv1d_3 (Conv1D)            (None, 33, 128)           32896     
> _________________________________________________________________
> max_pooling1d_3 (MaxPooling1 (None, 2, 128)            0         
> _________________________________________________________________
> flatten_1 (Flatten)          (None, 256)               0         
> _________________________________________________________________
> dense_1 (Dense)              (None, 128)               32896     
> _________________________________________________________________
> dense_2 (Dense)              (None, 4)                 516       
> =================================================================
> Total params: 362,432
> Trainable params: 176,132
> Non-trainable params: 186,300
> _________________________________________________________________
> Train on 50 samples, validate on 13 samples
> Epoch 1/2
>
Note that the original example was good for me, so may it be something related with the language?
Check that you are up-to-date with the master branch of Keras. You can update with:
…
