…
Check that your version of TensorFlow is up-to-date. The installation instructions can be found here.
Provide a link to a GitHub Gist of a Python script that can reproduce your issue (or just copy the script here if it is short).
Issue: I have a custom max pooling layer. It works similar to a normal max pooling in terms of dimensionality reduction. So from 32 x 32 to 16 x 16 with padding=same and strides=2. However I notice that model.summary reports the output shape to still be 32 x 32
Here is the result of model.summary:
Layer (type)                 Output Shape              Param #
=================================================================
input_1 (InputLayer)         (None, 32, 32, 3)         0
_________________________________________________________________
conv (Conv2D)                (None, 32, 32, 96)        2688
_________________________________________________________________
reshape_conv (Reshape)       (None, 32, 32, 1, 96)     0
_________________________________________________________________
primary_caps (ConvCapsuleLay (None, 32, 32, 8, 96)     664320
_________________________________________________________________
caps_conv_1 (ConvCapsuleLaye (None, 32, 32, 8, 96)     664320
_________________________________________________________________
max_pool_caps_1 (CapsMaxPool (None, 32, 32, 8, 96)     0
_________________________________________________________________
caps_conv_2 (ConvCapsuleLaye (None, 32, 32, 12, 192)   1992960
_________________________________________________________________
caps_conv_3 (ConvCapsuleLaye (None, 32, 32, 12, 192)   3983616
_________________________________________________________________
max_pool_caps_2 (CapsMaxPool (None, 32, 32, 12, 192)   0
_________________________________________________________________
caps_conv_4 (ConvCapsuleLaye (None, 30, 30, 16, 192)   5311488
_________________________________________________________________
caps_conv_5 (ConvCapsuleLaye (None, 30, 30, 16, 192)   5311488
_________________________________________________________________
caps_conv_6 (ConvCapsuleLaye (None, 30, 30, 20, 10)    345800
_________________________________________________________________
caps_norm (CapsuleNorm)      (None, 30, 30, 20)        0
_________________________________________________________________
avg_pool (GlobalAveragePooli (None, 20)                0
_________________________________________________________________
subclass_out (Dense)         (None, 100)               2100
=================================================================
Total params: 18,278,780
Trainable params: 18,278,780
Non-trainable params: 0
Both max_pool_caps_1 and max_pool_caps_2 has strides=(2,2) and I would expect that model.summary would report the output to be 16 x 16 not 32 x 32 for max_pool_caps_1 (the first two dimensions after None).
I checked that the output shape is indeed 16 x 16:
…
